/opt/conda/envs/py_3.10/lib/python3.10/site-packages/tqdm/auto.py:21: TqdmWarning: IProgress not found. Please update jupyter and ipywidgets. See https://ipywidgets.readthedocs.io/en/stable/user_install.html
  from .autonotebook import tqdm as notebook_tqdm
Loaded dictionary.
first level # of Classes 1276825
model: 459.795081 M parameters
EnhancedProteinCNN(
  (embedding): Embedding(25, 128, padding_idx=0)
  (feature_dense): Linear(in_features=3, out_features=128, bias=True)
  (global_feature_dense): Linear(in_features=28, out_features=128, bias=True)
  (initial_conv): Sequential(
    (0): Conv1d(128, 2000, kernel_size=(21,), stride=(1,), padding=same)
    (1): ReLU()
    (2): BatchNorm1d(2000, eps=1e-05, momentum=0.1, affine=True, track_running_stats=True)
  )
  (residual_blocks): ModuleList(
    (0-4): 5 x ResidualBlock(
      (layers): Sequential(
        (0): Conv1d(2000, 1000, kernel_size=(1,), stride=(1,))
        (1): ReLU()
        (2): BatchNorm1d(1000, eps=1e-05, momentum=0.1, affine=True, track_running_stats=True)
        (3): Conv1d(1000, 1000, kernel_size=(21,), stride=(1,), padding=same)
        (4): ReLU()
        (5): BatchNorm1d(1000, eps=1e-05, momentum=0.1, affine=True, track_running_stats=True)
        (6): Conv1d(1000, 2000, kernel_size=(1,), stride=(1,))
      )
    )
  )
  (pool): AdaptiveMaxPool1d(output_size=1)
  (fc1): Linear(in_features=2128, out_features=512, bias=True)
  (fc2): Linear(in_features=512, out_features=256, bias=True)
  (fc3): Linear(in_features=256, out_features=1276825, bias=True)
  (dropout): Dropout(p=0.5, inplace=False)
  (layer_norm): LayerNorm((128,), eps=1e-05, elementwise_affine=True)
)
  3%|▎         | 2999/100000 [1:47:32<50:35:34,  1.88s/it]   
Epoch [1000/100000]
First Position Metrics:
Train Loss: 32.0788, Train Accuracy: 0.0046
Train Precision (micro): 0.0046, Train Precision (macro): 0.0000
Train Recall (micro): 0.0046, Train Recall (macro): 0.0000
Train F1 (micro): 0.0046, Train F1 (macro): 0.0000

First Position Validation Metrics:
…
