Some weights of EsmModel were not initialized from the model checkpoint at facebook/esm1b_t33_650M_UR50S and are newly initialized: ['esm.pooler.dense.bias', 'esm.pooler.dense.weight']
You should probably TRAIN this model on a down-stream task to be able to use it for predictions and inference.
Trainable parameters: 0.986628 M
Total parameters: 653.343129 M
ESM1b(
  (esm): EsmModel(
    (embeddings): EsmEmbeddings(
      (word_embeddings): Embedding(33, 1280, padding_idx=1)
      (layer_norm): LayerNorm((1280,), eps=1e-05, elementwise_affine=True)
      (dropout): Dropout(p=0.0, inplace=False)
      (position_embeddings): Embedding(1026, 1280, padding_idx=1)
    )
    (encoder): EsmEncoder(
      (layer): ModuleList(
        (0-32): 33 x EsmLayer(
          (attention): EsmAttention(
            (self): EsmSelfAttention(
              (query): Linear(in_features=1280, out_features=1280, bias=True)
              (key): Linear(in_features=1280, out_features=1280, bias=True)
              (value): Linear(in_features=1280, out_features=1280, bias=True)
              (dropout): Dropout(p=0.0, inplace=False)
            )
            (output): EsmSelfOutput(
              (dense): Linear(in_features=1280, out_features=1280, bias=True)
              (dropout): Dropout(p=0.0, inplace=False)
            )
            (LayerNorm): LayerNorm((1280,), eps=1e-05, elementwise_affine=True)
          )
          (intermediate): EsmIntermediate(
            (dense): Linear(in_features=1280, out_features=5120, bias=True)
          )
          (output): EsmOutput(
            (dense): Linear(in_features=5120, out_features=1280, bias=True)
            (dropout): Dropout(p=0.0, inplace=False)
          )
          (LayerNorm): LayerNorm((1280,), eps=1e-05, elementwise_affine=True)
        )
      )
      (emb_layer_norm_after): LayerNorm((1280,), eps=1e-05, elementwise_affine=True)
    )
    (pooler): EsmPooler(
      (dense): Linear(in_features=1280, out_features=1280, bias=True)
      (activation): Tanh()
    )
    (contact_head): EsmContactPredictionHead(
      (regression): Linear(in_features=660, out_features=1, bias=True)
      (activation): Sigmoid()
    )
  )
  (attention): Sequential(
    (0): Linear(in_features=1280, out_features=256, bias=True)
    (1): Tanh()
    (2): Linear(in_features=256, out_features=1, bias=True)
  )
  (layer1): Linear(in_features=1280, out_features=512, bias=True)
  (layer_norm): LayerNorm((512,), eps=1e-05, elementwise_affine=True)
  (relu): ReLU()
  (dropout): Dropout(p=0.1, inplace=False)
  (layer2): Linear(in_features=512, out_features=3, bias=True)
)
Successfully loaded checkpoint from epoch 229
  0%|          | 40/100000 [08:51<150:20:20,  5.41s/it]
Epoch [230/100000]
Train Loss: 0.0212
Val Loss: 0.2465, Val Accuracy: 0.9047
Val F1 (micro): 0.9047, Val F1 (macro): 0.9041
Val Confusion Matrix:
[[530 110]
 [ 12 628]]
Epoch [240/100000]
Train Loss: 0.2307
Val Loss: 0.2489, Val Accuracy: 0.9023
Val F1 (micro): 0.9023, Val F1 (macro): 0.9022
…
