…
15: 32162
22: 31211
31: 26726
12: 20369
14: 17388
7: 15383
13: 13615
32: 11716
33: 6444
3: 5633
6: 5444
5: 5181
4: 3733
34: 2510
2: 1298
35: 872
1: 33
36: 4
0: 2
Some weights of EsmModel were not initialized from the model checkpoint at facebook/esm1b_t33_650M_UR50S and are newly initialized: ['esm.pooler.dense.bias', 'esm.pooler.dense.weight']
You should probably TRAIN this model on a down-stream task to be able to use it for predictions and inference.
Trainable parameters: 754.155969 M
Total parameters: 1406.51247 M
ESM1b(
  (esm): EsmModel(
    (embeddings): EsmEmbeddings(
      (word_embeddings): Embedding(33, 1280, padding_idx=1)
      (layer_norm): LayerNorm((1280,), eps=1e-05, elementwise_affine=True)
      (dropout): Dropout(p=0.0, inplace=False)
      (position_embeddings): Embedding(1026, 1280, padding_idx=1)
    )
    (encoder): EsmEncoder(
      (layer): ModuleList(
        (0-32): 33 x EsmLayer(
          (attention): EsmAttention(
            (self): EsmSelfAttention(
              (query): Linear(in_features=1280, out_features=1280, bias=True)
              (key): Linear(in_features=1280, out_features=1280, bias=True)
              (value): Linear(in_features=1280, out_features=1280, bias=True)
              (dropout): Dropout(p=0.0, inplace=False)
            )
            (output): EsmSelfOutput(
              (dense): Linear(in_features=1280, out_features=1280, bias=True)
              (dropout): Dropout(p=0.0, inplace=False)
            )
            (LayerNorm): LayerNorm((1280,), eps=1e-05, elementwise_affine=True)
          )
          (intermediate): EsmIntermediate(
            (dense): Linear(in_features=1280, out_features=5120, bias=True)
          )
          (output): EsmOutput(
            (dense): Linear(in_features=5120, out_features=1280, bias=True)
            (dropout): Dropout(p=0.0, inplace=False)
          )
          (LayerNorm): LayerNorm((1280,), eps=1e-05, elementwise_affine=True)
        )
      )
      (emb_layer_norm_after): LayerNorm((1280,), eps=1e-05, elementwise_affine=True)
    )
    (pooler): EsmPooler(
      (dense): Linear(in_features=1280, out_features=1280, bias=True)
      (activation): Tanh()
    )
    (contact_head): EsmContactPredictionHead(
      (regression): Linear(in_features=660, out_features=1, bias=True)
      (activation): Sigmoid()
    )
  )
  (heads): ModuleDict(
    (0): Sequential(
      (0): Linear(in_features=1280, out_features=512, bias=True)
      (1): ReLU()
      (2): Linear(in_features=512, out_features=2, bias=True)
    )
    (1): Sequential(
      (0): Linear(in_features=1280, out_features=512, bias=True)
      (1): ReLU()
      (2): Linear(in_features=512, out_features=33, bias=True)
    )
    (2): Sequential(
      (0): Linear(in_features=1280, out_features=512, bias=True)
      (1): ReLU()
      (2): Linear(in_features=512, out_features=1298, bias=True)
    )
    (3): Sequential(
      (0): Linear(in_features=1280, out_features=512, bias=True)
      (1): ReLU()
      (2): Linear(in_features=512, out_features=5633, bias=True)
    )
    (4): Sequential(
      (0): Linear(in_features=1280, out_features=512, bias=True)
      (1): ReLU()
      (2): Linear(in_features=512, out_features=3733, bias=True)
    )
    (5): Sequential(
      (0): Linear(in_features=1280, out_features=512, bias=True)
      (1): ReLU()
      (2): Linear(in_features=512, out_features=5181, bias=True)
    )
    (6): Sequential(
      (0): Linear(in_features=1280, out_features=512, bias=True)
      (1): ReLU()
      (2): Linear(in_features=512, out_features=5444, bias=True)
    )
    (7): Sequential(
      (0): Linear(in_features=1280, out_features=512, bias=True)
      (1): ReLU()
      (2): Linear(in_features=512, out_features=15383, bias=True)
    )
    (8): Sequential(
      (0): Linear(in_features=1280, out_features=512, bias=True)
      (1): ReLU()
      (2): Linear(in_features=512, out_features=65228, bias=True)
    )
    (9): Sequential(
      (0): Linear(in_features=1280, out_features=512, bias=True)
      (1): ReLU()
      (2): Linear(in_features=512, out_features=59006, bias=True)
    )
    (10): Sequential(
      (0): Linear(in_features=1280, out_features=512, bias=True)
      (1): ReLU()
      (2): Linear(in_features=512, out_features=53852, bias=True)
    )
    (11): Sequential(
      (0): Linear(in_features=1280, out_features=512, bias=True)
      (1): ReLU()
      (2): Linear(in_features=512, out_features=141571, bias=True)
    )
    (12): Sequential(
      (0): Linear(in_features=1280, out_features=512, bias=True)
      (1): ReLU()
      (2): Linear(in_features=512, out_features=20369, bias=True)
    )
    (13): Sequential(
      (0): Linear(in_features=1280, out_features=512, bias=True)
      (1): ReLU()
      (2): Linear(in_features=512, out_features=13615, bias=True)
    )
    (14): Sequential(
      (0): Linear(in_features=1280, out_features=512, bias=True)
      (1): ReLU()
      (2): Linear(in_features=512, out_features=17388, bias=True)
    )
    (15): Sequential(
      (0): Linear(in_features=1280, out_features=512, bias=True)
      (1): ReLU()
      (2): Linear(in_features=512, out_features=32162, bias=True)
    )
    (16): Sequential(
      (0): Linear(in_features=1280, out_features=512, bias=True)
      (1): ReLU()
      (2): Linear(in_features=512, out_features=35564, bias=True)
    )
    (17): Sequential(
      (0): Linear(in_features=1280, out_features=512, bias=True)
      (1): ReLU()
      (2): Linear(in_features=512, out_features=34333, bias=True)
    )
    (18): Sequential(
      (0): Linear(in_features=1280, out_features=512, bias=True)
      (1): ReLU()
      (2): Linear(in_features=512, out_features=33100, bias=True)
    )
    (19): Sequential(
      (0): Linear(in_features=1280, out_features=512, bias=True)
      (1): ReLU()
      (2): Linear(in_features=512, out_features=43499, bias=True)
    )
    (20): Sequential(
      (0): Linear(in_features=1280, out_features=512, bias=True)
      (1): ReLU()
      (2): Linear(in_features=512, out_features=61507, bias=True)
    )
    (21): Sequential(
      (0): Linear(in_features=1280, out_features=512, bias=True)
      (1): ReLU()
      (2): Linear(in_features=512, out_features=57902, bias=True)
    )
    (22): Sequential(
      (0): Linear(in_features=1280, out_features=512, bias=True)
      (1): ReLU()
      (2): Linear(in_features=512, out_features=31211, bias=True)
    )
    (23): Sequential(
      (0): Linear(in_features=1280, out_features=512, bias=True)
      (1): ReLU()
      (2): Linear(in_features=512, out_features=32827, bias=True)
    )
    (24): Sequential(
      (0): Linear(in_features=1280, out_features=512, bias=True)
      (1): ReLU()
      (2): Linear(in_features=512, out_features=107510, bias=True)
    )
    (25): Sequential(
      (0): Linear(in_features=1280, out_features=512, bias=True)
      (1): ReLU()
      (2): Linear(in_features=512, out_features=82470, bias=True)
    )
    (26): Sequential(
      (0): Linear(in_features=1280, out_features=512, bias=True)
      (1): ReLU()
      (2): Linear(in_features=512, out_features=96454, bias=True)
    )
    (27): Sequential(
      (0): Linear(in_features=1280, out_features=512, bias=True)
      (1): ReLU()
      (2): Linear(in_features=512, out_features=90631, bias=True)
    )
    (28): Sequential(
      (0): Linear(in_features=1280, out_features=512, bias=True)
      (1): ReLU()
      (2): Linear(in_features=512, out_features=85202, bias=True)
    )
    (29): Sequential(
      (0): Linear(in_features=1280, out_features=512, bias=True)
      (1): ReLU()
      (2): Linear(in_features=512, out_features=70506, bias=True)
    )
    (30): Sequential(
      (0): Linear(in_features=1280, out_features=512, bias=True)
      (1): ReLU()
      (2): Linear(in_features=512, out_features=71899, bias=True)
    )
    (31): Sequential(
      (0): Linear(in_features=1280, out_features=512, bias=True)
      (1): ReLU()
      (2): Linear(in_features=512, out_features=26726, bias=True)
    )
    (32): Sequential(
      (0): Linear(in_features=1280, out_features=512, bias=True)
      (1): ReLU()
      (2): Linear(in_features=512, out_features=11716, bias=True)
    )
    (33): Sequential(
      (0): Linear(in_features=1280, out_features=512, bias=True)
      (1): ReLU()
      (2): Linear(in_features=512, out_features=6444, bias=True)
    )
    (34): Sequential(
      (0): Linear(in_features=1280, out_features=512, bias=True)
      (1): ReLU()
      (2): Linear(in_features=512, out_features=2510, bias=True)
    )
    (35): Sequential(
      (0): Linear(in_features=1280, out_features=512, bias=True)
      (1): ReLU()
      (2): Linear(in_features=512, out_features=872, bias=True)
    )
    (36): Sequential(
      (0): Linear(in_features=1280, out_features=512, bias=True)
      (1): ReLU()
      (2): Linear(in_features=512, out_features=4, bias=True)
    )
  )
)
  0%|          | 303/100000 [05:58<32:44:34,  1.18s/it]
 11%|█         | 10999/100000 [3:46:31<29:08:08,  1.18s/it] 
Epoch [1000/100000]
Train Loss: 2.4113
Val Loss: 40.8854
Epoch [2000/100000]
Train Loss: 2.1791
Val Loss: 38.6332
Epoch [3000/100000]
Train Loss: 2.1207
Val Loss: 38.0773
Epoch [4000/100000]
Train Loss: 2.1204
Val Loss: 42.5822
…
