…
Some weights of EsmModel were not initialized from the model checkpoint at facebook/esm1b_t33_650M_UR50S and are newly initialized: ['esm.pooler.dense.bias', 'esm.pooler.dense.weight']
You should probably TRAIN this model on a down-stream task to be able to use it for predictions and inference.
Successfully loaded checkpoint from epoch 99999
Some weights of EsmModel were not initialized from the model checkpoint at facebook/esm1b_t33_650M_UR50S and are newly initialized: ['esm.pooler.dense.bias', 'esm.pooler.dense.weight']
You should probably TRAIN this model on a down-stream task to be able to use it for predictions and inference.
Trainable parameters: 1.331751 M
Total parameters: 653.688252 M
ESM2(
  (esm): EsmModel(
    (embeddings): EsmEmbeddings(
      (word_embeddings): Embedding(33, 1280, padding_idx=1)
      (layer_norm): LayerNorm((1280,), eps=1e-05, elementwise_affine=True)
      (dropout): Dropout(p=0.0, inplace=False)
      (position_embeddings): Embedding(1026, 1280, padding_idx=1)
    )
    (encoder): EsmEncoder(
      (layer): ModuleList(
        (0-32): 33 x EsmLayer(
          (attention): EsmAttention(
            (self): EsmSelfAttention(
              (query): Linear(in_features=1280, out_features=1280, bias=True)
              (key): Linear(in_features=1280, out_features=1280, bias=True)
              (value): Linear(in_features=1280, out_features=1280, bias=True)
              (dropout): Dropout(p=0.0, inplace=False)
            )
            (output): EsmSelfOutput(
              (dense): Linear(in_features=1280, out_features=1280, bias=True)
              (dropout): Dropout(p=0.0, inplace=False)
            )
            (LayerNorm): LayerNorm((1280,), eps=1e-05, elementwise_affine=True)
          )
          (intermediate): EsmIntermediate(
            (dense): Linear(in_features=1280, out_features=5120, bias=True)
          )
          (output): EsmOutput(
            (dense): Linear(in_features=5120, out_features=1280, bias=True)
            (dropout): Dropout(p=0.0, inplace=False)
          )
          (LayerNorm): LayerNorm((1280,), eps=1e-05, elementwise_affine=True)
        )
      )
      (emb_layer_norm_after): LayerNorm((1280,), eps=1e-05, elementwise_affine=True)
    )
    (pooler): EsmPooler(
      (dense): Linear(in_features=1280, out_features=1280, bias=True)
      (activation): Tanh()
    )
    (contact_head): EsmContactPredictionHead(
      (regression): Linear(in_features=660, out_features=1, bias=True)
      (activation): Sigmoid()
    )
  )
  (heads): ModuleDict(
    (0): Sequential(
      (0): Linear(in_features=1280, out_features=512, bias=True)
      (1): ReLU()
      (2): Linear(in_features=512, out_features=4, bias=True)
    )
    (1): Sequential(
      (0): Linear(in_features=1280, out_features=512, bias=True)
      (1): ReLU()
      (2): Linear(in_features=512, out_features=35, bias=True)
    )
  )
)
320it [00:26, 12.13it/s]
320it [00:26, 12.16it/s]00 [03:30<58:58:34,  2.13s/it]
320it [00:26, 12.13it/s]000 [07:36<59:06:45,  2.13s/it] 
Epoch [100/100000]
Train Loss: 0.7205
Val Loss 0 : 1.2138
Val Loss 1 : 2.0837
320it [00:27, 11.51it/s]000 [11:41<58:39:44,  2.12s/it] 
Epoch [200/100000]
Train Loss: 0.3218
Val Loss 0 : 0.8510
Val Loss 1 : 1.9214
…
