model: 2.012164 M parameters
EnhancedProteinCNN(
  (embedding): Embedding(25, 128, padding_idx=0)
  (feature_dense): Linear(in_features=3, out_features=128, bias=True)
  (global_feature_dense): Linear(in_features=28, out_features=128, bias=True)
  (convs): ModuleList(
    (0): Conv1d(128, 256, kernel_size=(3,), stride=(1,), padding=same)
    (1): Conv1d(128, 256, kernel_size=(5,), stride=(1,), padding=same)
    (2): Conv1d(128, 256, kernel_size=(7,), stride=(1,), padding=same)
    (3): Conv1d(128, 256, kernel_size=(9,), stride=(1,), padding=same)
    (4): Conv1d(128, 256, kernel_size=(11,), stride=(1,), padding=same)
  )
  (batch_norms): ModuleList(
    (0-4): 5 x BatchNorm1d(256, eps=1e-05, momentum=0.1, affine=True, track_running_stats=True)
  )
  (fc1): Linear(in_features=1408, out_features=512, bias=True)
  (fc2): Linear(in_features=512, out_features=256, bias=True)
  (fc3): Linear(in_features=256, out_features=4, bias=True)
  (dropout): Dropout(p=0.5, inplace=False)
  (layer_norm): LayerNorm((128,), eps=1e-05, elementwise_affine=True)
)
  5%|▍         | 4999/100000 [14:38<4:38:07,  5.69it/s]
Epoch [5000/100000]
Train Loss: 1.7883, Train Accuracy: 0.4987
Train F1 (micro): 0.4987, Train F1 (macro): 0.2243
Train Confusion Matrix:
[[     0      0      0      0]
 [   113 128503  31274    110]
 [    93 127410  31090    114]
 [     2   1032    259      0]]
Val Loss: 0.7263, Val Accuracy: 0.0080
…
