model: 2.012164 M parameters
EnhancedProteinCNN(
  (embedding): Embedding(25, 128, padding_idx=0)
  (feature_dense): Linear(in_features=3, out_features=128, bias=True)
  (global_feature_dense): Linear(in_features=28, out_features=128, bias=True)
  (convs): ModuleList(
    (0): Conv1d(128, 256, kernel_size=(3,), stride=(1,), padding=same)
    (1): Conv1d(128, 256, kernel_size=(5,), stride=(1,), padding=same)
    (2): Conv1d(128, 256, kernel_size=(7,), stride=(1,), padding=same)
    (3): Conv1d(128, 256, kernel_size=(9,), stride=(1,), padding=same)
    (4): Conv1d(128, 256, kernel_size=(11,), stride=(1,), padding=same)
  )
  (batch_norms): ModuleList(
    (0-4): 5 x BatchNorm1d(256, eps=1e-05, momentum=0.1, affine=True, track_running_stats=True)
  )
  (fc1): Linear(in_features=1408, out_features=512, bias=True)
  (fc2): Linear(in_features=512, out_features=256, bias=True)
  (fc3): Linear(in_features=256, out_features=4, bias=True)
  (dropout): Dropout(p=0.5, inplace=False)
  (layer_norm): LayerNorm((128,), eps=1e-05, elementwise_affine=True)
)
Successfully loaded checkpoint from epoch 4999
Metrics at checkpoint: {'train_loss': 0.9918120663881302, 'train_accuracy': 0.499496875, 'train_f1_micro': 0.499496875, 'train_f1_macro': 0.24294303060037276, 'train_confusion_matrix': array([[     0,      0,      0,      0],
       [    97, 107152,  52625,    126],
       [    79, 105790,  52687,    151],
…
